checkpoint.pth (torch_old, 1014 bytes, 3 tensors)

fc1.weight f4 [16, 2]
00000000: 89fb 8d3f 919b 4a3d d7f6 58be 7d81 533f
00000010: 774d 70bd 560f c8be 2e5e f23d ff50 bb3e
00000020: 6ef3 61bf fccd 053e 6faa 353e 9974 ccbd
00000030: c15b 7e3e 0014 8abe b8d6 a4be 3b2e 1c3f
00000040: 13d4 6fbe 6914 553f 81bb 833f e8a2 683e
00000050: 50ea 14be 2c11 803f 37a0 44bf 9537 06be
00000060: fbe5 4cbe 5275 cd3e c229 e63e fb62 a23e
00000070: 3e4d a53e 6039 c8bd 21ca 3c3d 2d8d 3dbf
1.1092387 0.049464766 -0.21187912 0.8261946 -0.058667626 -0.390742 0.118343696 0.36585233
-0.8826207 0.13066858 0.17740797 -0.09983177 0.24839689 -0.26968384 -0.32195067 0.6100804
-0.23420744 0.8323427 1.0291597 0.22718394 -0.14542508 1.000524 -0.7680697 -0.1310714
-0.20009606 0.4012857 0.44953734 0.3171614 0.32285494 -0.097765684 0.046091203 -0.7404354

fc1.bias f4 [16]
00000000: 15ef 41bf feee 1fbe b82e e2be e95d a83d
00000010: 92a9 3fbd 7c4a 1d3f b220 07be ddfd 203f
00000020: a56d bcbe d6ef b7be 7517 9fbf 2697 86bd
00000030: 09f5 0e3f 6695 12bf 1d6b fcbe 632b 193f
-0.75755435 -0.15618512 -0.4417627 0.08221037 -0.046792574 0.6144178 -0.13196066 0.62887365
-0.36802402 -0.35925168 -1.2429034 -0.06571798 0.55842644 -0.57259214 -0.4930047 0.5983183

fc2.weight f4 [1, 16]
00000000: edc9 983f 02a7 033d 638d 03bf 6620 ddbe
00000010: b6c5 043f 6e0d c3be 6466 f3bc ef6b 703e
00000020: c85b cabe d197 7e3f 0759 f7be 11ab f43d
00000030: e6f5 30be a7de d33f eae8 c6be 628d 8c3d
1.1936623 0.032141693 -0.51387614 -0.4318878 0.5186418 -0.38096184 -0.02971191 0.23478673
-0.3952315 0.99450403 -0.4831011 0.11946691 -0.17281303 1.6552323 -0.38849574 0.06862904
